第四章/net.pth (torch_old, 248362 bytes, 10 tensors)

conv1.weight f4 [6, 1, 5, 5]
000000 72 7d 86 3d 00 22 34 3d 2a ee 94 3d 0a 0b cb 3d
       0.065668955 0.043977737 0.07271989 0.09914215
000010 f2 aa 3d be 3a 2c ce 3d e8 ff 0f be 00 86 1a be
       -0.18522242 0.10067029 -0.14062464 -0.1509018
000020 d0 46 47 3c f8 98 0b bd 62 91 f0 3d c7 36 ed bd
       0.012162879 -0.03408143 0.117464796 -0.115827136
000030 42 10 36 be 0b 0c 15 3e e8 f1 f2 bc ea 61 e6 3d
       -0.1777964 0.14555375 -0.029656366 0.112491444
000040 1a ae 83 3d 10 93 19 be 6c 93 24 3d e0 c4 44 3d
       0.064296916 -0.14997506 0.040179655 0.048039317
000050 28 20 09 be 07 58 c2 bd e2 a9 8b 3d b8 bc 12 3d
       -0.13391173 -0.09489446 0.06819512 0.035824507
000060 8d 3b ae bd 20 fc 77 bd a1 92 3b 3e c8 91 17 bd
       -0.08507452 -0.06054318 0.18317653 -0.037004262
000070 d6 ed e6 3d ae 5b b1 3d 5a 62 04 be 00 2b 2e be
       0.11275832 0.08660065 -0.12928143 -0.1700859
000080 d1 95 44 3e a0 1a 2b 3c bf 61 0c 3e 94 c3 29 3d
       0.19197775 0.01044336 0.13709162 0.041446283
000090 96 bc 83 3d 25 fa 18 3e c1 31 42 3e c2 e6 07 be
       0.06432454 0.14939173 0.18964292 -0.13271621
0000a0 f0 d8 cc 3c 61 d5 18 3e 43 5d 14 3e 92 75 fe 3d
       0.025005788 0.14925148 0.14488702 0.124247685
0000b0 b6 37 14 be 33 7a 13 be e7 b6 f7 bd 58 d4 cd 3c
       -0.14474377 -0.14402084 -0.12095433 0.025125667
0000c0 f1 1d 4c 3e fe 5d 01 be 9e 44 da 3d 70 b5 e2 bd
       0.19933297 -0.12633511 0.10657619 -0.11069763
0000d0 62 8e 40 be cc 1c 2e bd e6 ff eb 3d 95 21 3e 3e
       -0.18804315 -0.04250793 0.11523418 0.18567498
0000e0 a3 60 fe bd 8c c6 31 3d b9 b6 30 3e 21 b6 07 3e
       -0.12420776 0.04340224 0.17257203 0.1325307
0000f0 ae 45 ff 3d 9d 89 11 3e 13 8a 01 3e ac 98 53 3d
       0.12464462 0.14212652 0.12650327 0.05165927
000100 de 0b 0c be 88 fb 2b be ea af bb bd f0 c8 be bc
       -0.13676402 -0.1679517 -0.09164412 -0.023289174
000110 b3 10 fb bd 8a da 95 3d 4c 88 7d 3d ec 7e 39 bd
       -0.122590445 0.07317074 0.06189756 -0.045287058
000120 0e 6d 9d 3d 62 60 84 3d a6 13 fa 3d d9 eb 09 3e
       0.07686816 0.06463696 0.12210779 0.13468875
000130 50 b6 8a bd 49 18 48 3e 68 69 bd bc c0 27 e1 bb
       -0.067730546 0.19540514 -0.02312155 -0.0068711936
000140 80 4e 41 be 06 d0 03 be 2d 4a ef bd 00 32 af bd
       -0.18877602 -0.12872323 -0.1168407 -0.085544586
000150 49 9b 11 3e 7a d9 85 bd 0e 0b 19 be f2 97 9d 3d
       0.14219393 -0.06535621 -0.14945623 0.07694997
000160 36 24 83 3d a5 a5 04 3e e3 f4 d3 bd 68 9d 31 3d
       0.06403391 0.12953813 -0.10349443 0.043363005
000170 7a 1d 95 bd b4 0d 38 bd 7a 35 23 be 00 ae ba bd
       -0.07281013 -0.044934943 -0.15938368 -0.09115219
000180 e8 e2 7a bd d2 28 af 3d c0 a8 15 3d 18 5b 4a 3d
       -0.06125155 0.08552708 0.036537886 0.04940328
000190 75 69 4c 3e 8d 9a 47 3e e9 ae 0b 3e a0 b0 d0 3b
       0.19962104 0.1949255 0.13640942 0.0063687116
0001a0 cb ad 0d be 9d 0d 20 3e 18 da 4c bd 00 75 84 bc
       -0.13835828 0.15630193 -0.050012678 -0.016169071
0001b0 5b 6f 30 be c0 d0 21 bd f0 17 04 be 23 31 3c 3e
       -0.17229979 -0.03950572 -0.12899756 0.18378119
0001c0 cd 0d 31 be 58 a3 1f be 40 89 de bb 20 7a dd bd
       -0.17290421 -0.15589654 -0.006791264 -0.10814309
0001d0 46 8f 92 3d 60 aa 9d bd 50 62 c0 bd 20 97 39 3c
       0.071562335 -0.07698512 -0.093937516 0.011327535
0001e0 19 41 14 3e aa 0f 10 be ca 59 c0 3d 6f 92 03 3e
       0.14477958 -0.14068475 0.09392126 0.12848829
0001f0 b5 55 48 3e 8a 58 0f be e8 66 46 3d 43 6f 17 be
       0.19563945 -0.13998619 0.048437983 -0.14788537
000200 19 d9 2e 3e ed e2 9e bd 42 b9 f6 3d 40 1c c3 3b
       0.17075004 -0.077581264 0.12047054 0.0059542954
000210 b0 34 7f bc 60 1c d1 bb 6c 42 0b 3d 76 15 c1 3d
       -0.0155765265 -0.0063815564 0.03399889 0.094279215
000220 18 62 03 3d a4 e6 79 3d 00 39 38 be 59 34 15 3e
       0.03207597 0.06101097 -0.17990494 0.1457075
000230 c9 8e 32 3e f3 49 29 3e 8f 64 17 3e 45 ca 13 be
       0.1743728 0.16532116 0.14784454 -0.14432628
000240 b6 d6 97 bd cd 93 34 3e d8 fc 1b be 85 cc 39 3e
       -0.07414 0.17634507 -0.15233171 0.18144424
000250 0b 13 21 be 4b 43 10 be
       -0.1572992 -0.1408817

conv1.bias f4 [6]
000000 92 3e c8 3d 85 25 13 be e8 ad 3b bd 87 fd 14 3e
       0.09777559 -0.14369781 -0.045820147 0.14549838
000010 45 38 22 3e d7 b0 41 3e
       0.15841778 0.18915115

conv2.weight f4 [16, 6, 5, 5]
000000 e8 b9 87 bc ee f8 81 bd 2a a5 a4 3d d8 7c 8e bc
       -0.01656814 -0.06346308 0.08039315 -0.017393515
000010 61 99 09 bd d0 0d a3 3c 47 e1 69 bd a0 d1 5b 3d
       -0.03359354 0.019904047 -0.057099607 0.05366671
000020 44 9a 51 3d 4c af 84 bd 42 59 89 bd 20 5d ea bb
       0.05117251 -0.06478748 -0.06706478 -0.0071522146
000030 da 78 0c 3d e0 f9 1a bb e4 95 29 bd 80 ac f4 3a
       0.03429494 -0.0023647472 -0.041402712 0.0018667132
000040 8f 2c 9d bd f6 5d 6c bd 94 a1 5e bd a2 b5 89 3d
       -0.076745145 -0.057706796 -0.05435331 0.06724097
000050 72 67 93 3d ba 31 e3 bc 60 fe 6f 3b ca 26 15 3d
       0.07197465 -0.027733672 0.0036620125 0.036413945
000060 10 49 20 3c 5f 78 27 bd f4 e1 40 3d 00 97 4d 3d
       0.009783044 -0.04088628 0.047090486 0.050192833
000070 50 0f 9b bb 20 ae 24 bc 82 f5 97 3d a6 2b 92 3d
       -0.00473205 -0.01005128 0.07419874 0.071372315
000080 56 9e 3d bd c2 9a a3 3d 28 87 a5 3c 46 27 5e bd
       -0.04629358 0.07988502 0.02020605 -0.054236673
000090 34 13 37 3d a2 ae 79 bd 7a 7f 9a 3d a8 00 57 bd
       0.044696048 -0.06095756 0.075438455 -0.05249086
0000a0 20 2d bd 3c 1c ac cb 3c d4 18 9f 3c da b1 8a 3d
       0.023092806 0.024862342 0.019421019 0.06772204
0000b0 82 e8 0a bd 7a 30 0d bd 23 e8 90 bd 60 9a 5b bb
       -0.033913143 -0.03447006 -0.070755266 -0.0033508763
0000c0 00 6e 1e bd 00 69 56 3b 40 1e 89 bc 9c ed dd 3c
       -0.038679123 0.0032716393 -0.016738057 0.02709084
0000d0 22 a8 90 3d c0 5e c5 3c a2 78 d7 bc 62 1b 24 bd
       0.07063319 0.024093032 -0.02630264 -0.040065177
0000e0 13 d7 91 bd 9a b4 8c 3d 58 6c 7d bc 00 04 87 3c
       -0.071211 0.068703845 -0.015467726 0.0164814
0000f0 60 f0 45 3b 2e 20 55 bd 44 59 3c 3d bc 6c 3b 3d
       0.003020309 -0.052032642 0.045983568 0.045757994
000100 e0 bc 86 3b 8e 0e 3e bd c0 1a 0e bd c0 60 93 3a
       0.004111871 -0.0464006 -0.03469348 0.0011244044
000110 89 13 3f bd 15 9a 3a bd 48 8c 47 bc 40 9a c0 bc
       -0.04664949 -0.0455571 -0.012179442 -0.023511052
000120 1c 32 a4 3c 80 cf af bc 08 56 31 bc 00 4c ff bc
       0.020043425 -0.021461248 -0.010823734 -0.03116417
000130 7c d0 98 bd f4 d5 91 3d f8 37 7f 3c e8 87 95 3d
       -0.0746164 0.071208864 0.015577309 0.07301313
000140 c8 97 57 bc be 18 a8 bc 01 34 9d bd 66 e9 fd bc
       -0.013158746 -0.02051961 -0.076759346 -0.030995082
000150 7c 50 5b 3d 0c c8 a3 bd f2 f2 e9 bc 44 c2 4b 3d
       0.053543553 -0.0799714 -0.028558228 0.049745813
000160 50 c0 40 3d 84 fa f6 3c 7c 66 84 bc b0 93 ca bb
       0.047058403 0.030148752 -0.01616215 -0.0061821565
000170 28 0c 7e bc f2 92 f6 bc 9c 91 0b 3d 06 d2 e3 bc
       -0.015505828 -0.030099366 0.03407441 -0.027810108
000180 56 e1 3b bd b4 bd 97 3c aa bb 71 bd 64 bf 8e bc
       -0.045869194 0.018523075 -0.05901686 -0.017425247
000190 e0 e6 2a 3d 58 fa f9 3c 08 5c 8e 3d 0d 1a 64 bd
       0.041724086 0.030514881 0.06951147 -0.055688906
0001a0 00 19 3a 3a 34 85 c5 bc 65 0e 3b bd 83 23 3c bd
       0.0007099062 -0.024111368 -0.045668025 -0.045932304
0001b0 74 83 a8 3c 20 f6 0b 3c 7e b6 2a bd 2a bb 6b bd
       0.020570494 0.0085425675 -0.041677944 -0.05755154
0001c0 95 8b 8a bd 8c e2 a3 3d 58 03 64 bc d0 aa 9a bc
       -0.067649044 0.08002195 -0.013916813 -0.018880278
0001d0 fe f4 f5 bc 22 46 27 bd 61 ec 98 bd 92 55 44 bd
       -0.030024048 -0.04083837 -0.07466961 -0.04793317
0001e0 dc 6a 4c 3d dc 99 92 3c 7a f3 eb bc 9a c6 fc bc
       0.049906597 0.017895631 -0.028802622 -0.03085642
0001f0 9c a4 55 3d c0 13 71 3d a4 1a a1 3d 44 1d c3 3c
       0.052158937 0.058856726 0.078664094 0.023817666
000200 fc 91 21 3d b0 f8 d6 bb 17 86 43 bd 28 d2 a3 bd
       0.039445862 -0.0065604076 -0.0477353 -0.079990685
000210 24 b4 4b 3d 00 70 42 bc ee 66 09 3d 50 b1 83 3b
       0.049732342 -0.011867523 0.033545427 0.00401894
000220 8c 11 9c bd b5 12 24 bd 04 2d bc 3c 60 61 87 bc
       -0.07620534 -0.040056903 0.022970684 -0.016525924
000230 05 7a a1 bd 08 8c ea 3c 60 38 4d 3b 90 f6 d6 bc
       -0.078846015 0.028631225 0.003131412 -0.026240617
000240 5e 1a 07 3d 5c 36 8d 3c ca ae f6 bc 70 38 96 3d
       0.03298413 0.017237835 -0.030112643 0.07334983
000250 bc c7 27 3d a0 f8 27 3c 4c 75 80 bc 07 a4 8d bd
       0.040961966 0.010252148 -0.015680932 -0.06916051
000260 0a 1b 81 3d ac 98 ac bc 2b 1f 58 bd c8 6c 56 3d
       0.063039854 -0.021068893 -0.0527641 0.052349836
000270 24 8d ed 3c 80 86 a5 3c e8 9f 84 bc 56 bc d0 bc
       0.028997965 0.020205736 -0.01618953 -0.02548043
000280 88 03 63 3c e2 66 81 3d 30 92 3f 3c 4a 23 1e bd
       0.013855822 0.063184515 0.011692569 -0.038607873
000290 e6 1c a6 3d 80 e2 e4 3a 6e 30 84 3d 94 04 a3 3c
       0.08110981 0.0017462522 0.0645455 0.019899644
0002a0 2c e3 95 3d 1c f6 40 3d 4c 81 2a bd 54 ed 6a 3d
       0.0731872 0.04710971 -0.041627213 0.05735524
0002b0 00 b2 09 3a ac 3a 86 bd ec 28 8c bc f6 ee 96 bd
       0.00052526593 -0.065541595 -0.017109357 -0.07369797
0002c0 c5 45 2d bd 5c ed 6c bd 1c bd 64 3d c4 85 8c bc
       -0.042302866 -0.05784355 0.05584441 -0.017153628
0002d0 c8 21 67 bc 72 44 20 3d 26 1b 08 3d ba b7 5c bd
       -0.014107175 0.039127775 0.033229016 -0.053886153
0002e0 d8 80 f6 3c 8e 13 0e 3d fe f4 84 bd ce 62 91 3d
       0.030090734 0.034686618 -0.06492041 0.070989236
0002f0 a1 7f 4b bd 28 c8 02 bd 49 bc 89 bd 84 d5 98 3d
       -0.049682263 -0.031929165 -0.06725366 0.074626
000300 10 bb 7e 3c c6 cd 8c 3d 50 b6 ae 3b f8 c7 35 3d
       0.015547529 0.06875186 0.005331792 0.04438016
000310 d2 8f d5 bc 21 67 85 bd d8 be 56 3c d0 98 ee bb
       -0.026069555 -0.06513811 0.013107024 -0.0072814003
000320 38 12 07 bc 3a 3f 24 bd c0 8c dd 3a fc 16 c0 3c
       -0.00824409 -0.04009936 0.0016902909 0.02344846
000330 80 4b f1 3c 8c b4 86 bd c2 92 21 3d 88 90 09 3c
       0.029454947 -0.06577405 0.0394466 0.008396275
000340 c8 aa 66 3d f0 59 6c 3d e1 af 83 bd 52 95 a0 3d
       0.056315213 0.05770296 -0.064300306 0.078409806
000350 80 73 a4 bd a4 41 40 3d 00 50 bc 3b 30 42 1e 3d
       -0.080298424 0.0469376 0.0057468414 0.03863734
000360 2f da 34 bd f4 0f 49 3d 8a 7d 25 bd c4 cd 93 bd
       -0.04415339 0.04908748 -0.040402927 -0.07216981
000370 50 18 e0 3c a8 0e 37 3d ca c1 a5 3d c8 cf 0b bc
       0.027355343 0.04469171 0.08093603 -0.008533426
000380 52 dc a0 3d e0 da 56 3d 65 de 25 bd aa fb 80 bd
       0.07854523 0.05245483 -0.040495295 -0.06298001
000390 d8 92 3b 3d df 3a 37 bd 8e 67 19 3d 4d 36 8f bd
       0.045794338 -0.04473388 0.037452273 -0.06992779
0003a0 c4 fe 73 3d 34 79 c8 3c 90 ca 19 bc d8 61 19 3d
       0.059569135 0.024471857 -0.009386674 0.037446827
0003b0 ee 19 6e bd 74 38 92 bc 00 d5 51 3a 24 3f 41 bd
       -0.058130197 -0.017849185 0.0008004457 -0.047179356
0003c0 80 e9 aa bc 43 3a 10 bd 84 5d 9f 3d e0 0e 8e 3d
       -0.020863295 -0.035211813 0.077815086 0.06936431
0003d0 02 39 90 3d 7c ac 88 3d 75 25 a0 bd 6c bd df 3c
       0.070421234 0.06673524 -0.07819644 0.027312003
0003e0 14 8a f6 3c 6b 4d 75 bd 9c 8f 07 3d 9b 78 35 bd
       0.030095138 -0.059888285 0.03309594 -0.04430447
0003f0 70 b9 54 3c fc 8c dd 3c c2 4a 90 3d 59 73 2f bd
       0.012983665 0.027044766 0.07045509 -0.042834613

conv2.bias f4 [16]
000000 a4 aa a6 3d a8 d9 8a 3d 60 2b ff 3b 70 12 b9 3c
       0.08138016 0.06779796 0.007787153 0.0225918
000010 4d 03 07 bd 92 40 81 bd 06 e9 6d bd 00 50 d4 3c
       -0.032962132 -0.06311144 -0.058083557 0.025917053
000020 c4 99 23 3d c0 95 82 ba f4 c3 da bc 9c b5 d9 bc
       0.039941564 -0.0009962842 -0.026704766 -0.026575856
000030 b2 11 39 bd a3 f7 49 bd e0 a4 5c 3d c0 56 90 bd
       -0.04518289 -0.04930843 0.053868175 -0.07047796

fc1.weight f4 [120, 400]
000000 19 8d 15 3d e2 1b e2 3c e0 7e 5f bc 68 4c d4 bb
       0.036511514 0.027601186 -0.013641089 -0.006478835
000010 94 6f 89 bc d2 1f 2c bd 98 d9 83 3b e8 b1 1c bd
       -0.016776837 -0.042022534 0.004023742 -0.038255602
000020 a0 d0 bb 3a 8c 89 8e bc 28 71 1e bd 77 66 3d bd
       0.0014329143 -0.017399572 -0.038682133 -0.046240296
000030 9b 75 36 3d d9 28 1f 3d c3 55 3b 3d 82 10 99 3c
       0.04454575 0.038857315 0.045736086 0.01868463
000040 82 b7 b6 3c 02 4a c7 3c 09 ca 16 3d 98 15 00 3c
       0.0223043 0.024327282 0.03681377 0.007817648
000050 28 0d a9 3b 21 5b 15 3d ae 33 b8 3c fd d6 f8 bc
       0.005159039 0.03646386 0.02248558 -0.030375952
000060 c5 bc 09 3d 95 ba 45 3d 93 46 9b bc f7 84 42 bd
       0.03362729 0.04827364 -0.01895455 -0.047490086
000070 b8 0c 0f bc 56 c0 05 bd 83 47 4b 3d 88 8a 2d bc
       -0.00873106 -0.03265413 0.049628746 -0.01059211
000080 cd c7 d0 bc ef df 02 3d 36 e2 9c 3c 6c 49 71 3c
       -0.025485897 0.03195184 0.019150835 0.014726978
000090 ab 28 38 3d 50 27 4a bd 52 0d c6 3c 20 1f c0 bc
       0.04496066 -0.049353898 0.024176273 -0.023452342
0000a0 1a 00 8a 3c 04 1e 93 bc 8f 16 3b 3d 58 42 1d bc
       0.016845752 -0.017958649 0.04567581 -0.009598337
0000b0 80 df 9e 3b a5 09 21 bd ae 98 f8 3c 32 b8 4a bd
       0.0048484206 -0.03931584 0.03034624 -0.04949207
0000c0 32 59 e1 3c e1 bb 10 3d 3d e5 22 3d de 9c f9 3c
       0.027508352 0.035335425 0.0397694 0.030470308
0000d0 36 87 82 bc 4c a9 27 3c ec 68 4f 3c 37 ac 43 bd
       -0.015933614 0.010233235 0.012659293 -0.04777166
0000e0 82 33 dd 3c 1d 32 25 bd a6 86 93 3c 89 c6 45 3d
       0.0270021 -0.040330995 0.018008541 0.04828504
0000f0 00 b0 63 bc 10 fd df 3b f1 bc 3d 3d c5 dd 28 3d
       -0.013896942 0.0068355873 0.046322767 0.04122712
000100 0b d3 2a 3d c5 b1 0d bd a0 60 21 3c 1a 2c 2b bd
       0.041705173 -0.034593362 0.009849697 -0.041790105
000110 4c 3f 16 3c 9a cf 41 bd 40 02 bd 3b ae 73 cf 3c
       0.009170365 -0.047317125 0.0057680905 0.025323715
000120 d8 6e 36 bd d0 63 f9 bb 27 5c a9 bc 67 3b 28 3d
       -0.044539303 -0.0076107755 -0.020673824 0.041072275
000130 58 69 a2 bb 96 c2 fe 3c 5e 0a 17 bd a8 a1 e4 3b
       -0.0049564056 0.031098645 -0.03687512 0.0069772787
000140 01 76 14 3d 50 c5 35 3b bc 85 8f bc f0 a0 a7 bc
       0.03624535 0.0027736016 -0.017519824 -0.020462483
000150 ad cd 0b 3d 2e 93 a1 3c 30 bb 5b 3b ae 14 f2 3c
       0.034131695 0.019723501 0.003352832 0.029550876
000160 cd 1e d5 bc fe 82 1b bd 88 eb 38 bc 8b 07 16 3d
       -0.026015664 -0.03796672 -0.011286624 0.036628287
000170 10 14 46 bd 00 67 cb bc c0 a7 46 3c ea 5a 9a 3c
       -0.048358977 -0.024829388 0.012124956 0.01884218
000180 f2 fc cc 3c ec ee 77 3c 23 bb 34 bd 30 52 85 bc
       0.025022957 0.015132647 -0.04412378 -0.016274542
000190 f2 df fb 3c 8c 1b 0d 3c 16 cc e0 3c fd 77 19 3d
       0.030746434 0.008612525 0.027441066 0.037467945
0001a0 da 3d ea 3c 3d 39 aa bc 40 56 c4 bc 08 58 0f bc
       0.028593946 -0.020779246 -0.023966908 -0.008749016
0001b0 a0 7e c9 ba 18 96 8e bb 28 d1 1c bc 90 a9 db 3b
       -0.001537282 -0.0043513887 -0.009571351 0.006703563
0001c0 fd df 00 3d 9a cf 0c bd 86 fc cf 3c ed 86 4a bd
       0.031463612 -0.03437767 0.025388967 -0.04944508
0001d0 20 ba 5d 3b ad 95 3a bd 79 bc 45 3d 1b 20 2e bd
       0.0033832863 -0.0455529 0.048275445 -0.042511087
0001e0 1a e2 e4 bc fb 4b 07 3d a2 ab d8 3c b1 11 21 3d
       -0.027939845 0.033031445 0.026449028 0.039323512
0001f0 e4 77 60 3c c3 1d 38 bd a6 96 0f bd dd 37 0c 3d
       0.013700459 -0.044950258 -0.03505578 0.034232963
000200 98 6c 47 bd c1 71 38 3d 54 b3 0a bc 48 b3 15 3c
       -0.048687547 0.04503036 -0.008465607 0.009136982
000210 e0 7b 0c bb a8 75 4e bc 38 ea 48 bc 5c 3d 74 3c
       -0.002143614 -0.012601294 -0.012262873 0.014907207
000220 e0 e1 0f bc f4 88 0a 3c 0f 9f 2b 3d d0 84 93 3b
       -0.00878188 0.008455504 0.041899737 0.0045019165
000230 d5 cd 20 bd d5 0d 1b bd e9 36 02 3d d2 32 8f 3c
       -0.039258797 -0.037854988 0.031790648 0.017480288
000240 58 29 1d 3c f3 5d cc bc 53 b7 27 bd 71 2e 30 3d
       0.009592377 -0.024947142 -0.040946316 0.04301304
000250 7b 72 40 bd 53 04 cc bc f6 12 a0 3c 81 01 31 3d
       -0.046984177 -0.024904406 0.019540291 0.043214325
000260 94 a3 8d bc 02 cf 46 bd 28 9b 3e 3c a0 b4 93 ba
       -0.017289914 -0.04853726 0.011633672 -0.001126904
000270 70 0a fa bb 9d 43 36 bd 03 ad 0f 3d 28 5d ee 3b
       -0.007630639 -0.044498075 0.035077106 0.0072742887
000280 a4 1a 6d 3c 72 2b f6 3c b5 f8 31 3d 28 64 4f bc
       0.014471684 0.030050013 0.043450076 -0.012658156
000290 80 22 90 3b 44 3e 01 bd 96 99 1a bd 6a 7a ce bc
       0.004398644 -0.03155352 -0.037744127 -0.025204856
0002a0 70 f8 f4 3b 9a a5 01 bd 8e 47 e8 3c 16 de 8e 3c
       0.007475905 -0.03165207 0.028354432 0.017439883
0002b0 bc 7c 86 bc 1a 1c ca 3c 21 39 19 3d 16 73 88 bc
       -0.0164169 0.024671603 0.037407998 -0.01665644
0002c0 c6 ea e3 3c d2 6a ff 3c df 0c 40 3d 96 52 16 bd
       0.02782191 0.031178866 0.046887275 -0.036699854
0002d0 d9 c1 23 3d 00 f0 ca 37 d0 ba 5a 3b 00 a8 12 b9
       0.03997979 2.4192035e-05 0.003337551 -0.0001398623
0002e0 55 43 04 bd 3c 97 95 bc 8d aa 26 bd 18 13 d5 bb
       -0.032290775 -0.01826059 -0.040689994 -0.0065025203
0002f0 8c f0 4b 3c 7d 87 11 bd f6 f5 9d 3c 8b ee 48 bd
       0.012447488 -0.035529602 0.019282322 -0.049055617
000300 6e bc c5 3c 4f 11 49 bd 40 fa cf ba 5d da 16 3d
       0.024137702 -0.049088772 -0.0015867427 0.03682934
000310 cf cd 39 bd ca 69 21 bd 9a 98 c5 bc 83 2e a3 bc
       -0.04536229 -0.03940753 -0.024120618 -0.01991964
000320 37 2b de bc 4f 72 33 3d 9b 5d 13 bd 9e 61 b9 3c
       -0.027120216 0.043810185 -0.03597794 0.022629555
000330 bb ea 12 bd fc 7f 84 bc 13 12 24 bd 3a d0 43 bd
       -0.035868388 -0.016174309 -0.0400563 -0.047806002
000340 30 f8 dd bc 40 73 db 3a 8a a2 dc 3c aa 3f a0 3c
       -0.027095884 0.0016742721 0.026932973 0.019561607
000350 fa 88 a3 3c 45 92 2d 3d 60 53 0a bb e1 66 48 3d
       0.019962776 0.04237582 -0.0021106824 0.048926238
000360 80 ac 32 bd 5a cc bf bc 7e 9c 24 bd 83 21 0d bd
       -0.04362154 -0.023412872 -0.040188305 -0.034455787
000370 be 62 18 bd 12 07 42 bd b9 68 40 3d 98 fd 1c 3c
       -0.037203543 -0.047370024 0.04697487 0.009581946
000380 4a 27 ce 3c cc b4 84 bc f4 fd 3a 3c 80 9c db bc
       0.025165219 -0.016199492 0.011413086 -0.026808023
000390 80 cf 4a bd 40 48 95 3b 02 25 fb 3c 80 3b 02 bc
       -0.049514294 0.004555732 0.030657295 -0.007948756
0003a0 42 77 81 3c 5a 74 ac 3c 91 fc 14 3d f7 88 41 bd
       0.015803937 0.021051574 0.03637368 -0.04724976
0003b0 b7 3c a9 bc 30 79 59 3b db 2c 45 3d 37 d4 45 3d
       -0.020658834 0.0033183806 0.04813848 0.048298087
0003c0 ce ca 0a bd 96 f7 06 bd c9 44 42 3d a0 5f 73 bb
       -0.033884816 -0.03295096 0.04742888 -0.0037135854
0003d0 7d 7e ee bc 0a 0b d2 bc a2 25 ee 3c 8a 5f fe 3c
       -0.029113049 -0.02564003 0.02907068 0.031051416
0003e0 6b 5d 2c 3d 68 56 26 bc f4 4b 76 bc d0 85 19 bb
       0.042081278 -0.010152437 -0.015032757 -0.0023425706
0003f0 81 e6 33 3d 92 28 36 bd 02 5d cf 3c f6 9e 0e bd
       0.043920998 -0.044472285 0.025312904 -0.034819566

fc1.bias f4 [120]
000000 f6 8f f1 3c 87 ba b9 bc d0 41 c1 bc 4a 8d e0 bc
       0.029487591 -0.022671951 -0.023590952 -0.027411122
000010 43 e7 eb bc a7 57 fd bc 43 67 06 3d 78 f7 05 bd
       -0.028796798 -0.030925585 0.03281332 -0.032706708
000020 50 d4 15 bb a0 08 b4 3a 1f d3 42 3d 8a 92 91 bc
       -0.0022862144 0.0013735481 0.047564622 -0.01777007
000030 30 7f b2 bc 24 09 52 3c 54 47 1f 3c 32 36 85 3c
       -0.021789163 0.012819562 0.009721596 0.016261194
000040 6d 50 20 3d e0 e5 1b bd 80 fe c2 3b 40 59 e9 bb
       0.0391392 -0.038061023 0.005950749 -0.007121235
000050 cd 69 30 bd 10 08 ee bb 40 59 3f 3c f6 8b ee 3c
       -0.04306965 -0.0072641447 0.011678994 0.029119473
000060 80 f3 4b 3a 3a 67 15 bd 08 22 42 bc e6 58 ec 3c
       0.000778012 -0.036475398 -0.011848934 0.028850984
000070 62 ff 96 3c 48 b2 14 bd a0 49 23 3c c8 44 1c bc
       0.018432323 -0.036302835 0.009966284 -0.009537883
000080 a0 3f 6d 3b a3 ec 03 3d f7 9c d0 bc a0 56 74 bb
       0.0036201254 0.032208096 -0.025465472 -0.0037283078
000090 c1 87 18 3d 00 8c e5 bb ef a8 4b 3d 20 43 66 bb
       0.03723884 -0.0070052147 0.049721655 -0.0035135224
0000a0 cc 21 24 3c f8 ec 05 bc 62 78 85 3c 7a 04 8d bc
       0.010017823 -0.0081741735 0.016292755 -0.017214049
0000b0 c7 9b 40 3d fd 58 3a 3d a0 79 20 3b 7d 46 d6 bc
       0.04702356 0.045495022 0.0024486557 -0.026156658
0000c0 7c 72 7f 3c 18 13 f8 bb 63 2e 2c bd e8 81 b8 3b
       0.01559126 -0.0075706355 -0.042036425 0.0056307204
0000d0 b8 44 12 bd d4 6c 8b bc 05 97 15 bd f7 b2 1f 3d
       -0.035710067 -0.017019667 -0.036520977 0.038989034
0000e0 8e ee a2 3c 00 20 eb bc 09 6c 04 3d 16 32 19 bd
       0.019889142 -0.028701782 0.032329593 -0.03740128
0000f0 f0 2c 94 3b 35 60 23 bd 7e 31 e3 3c 17 63 df bc
       0.0045219585 -0.039886672 0.02773356 -0.02726893
000100 40 a6 93 bc 1c af 51 3c a2 a4 4b bd 42 74 ea 3c
       -0.01802361 0.012798097 -0.049717553 0.02861989
000110 b0 9d 57 3b 9e 7e 06 bd e8 48 f3 bb c0 b1 02 bd
       0.0032900386 -0.032835595 -0.0074244626 -0.031907797
000120 0c 74 41 3c de 29 95 3c 96 cc 27 bd c1 a8 06 3d
       0.011807453 0.01820844 -0.040966593 0.03287578
000130 f4 2c 93 bc fd d2 38 3d 80 ce 7b bb b4 a7 3c 3c
       -0.017965771 0.04512309 -0.0038422644 0.011514593
000140 47 6b ad bc c0 72 6e ba 80 da bc bb e8 cf 7d bc
       -0.021169318 -0.00090960786 -0.005763352 -0.015491463
000150 30 b5 de bc 60 b3 cc 3a 68 99 38 bd ad a3 ec bc
       -0.027186006 0.0015617423 -0.045068175 -0.02888664
000160 80 ec a4 bc 00 44 a9 3a ed e2 fc bc c0 8a c4 bc
       -0.020132303 0.0012913942 -0.030869925 -0.023991942
000170 18 83 85 3b c0 ec 50 3a c0 35 9a 3a 67 53 db bc
       0.0040744655 0.0007969849 0.0011765286 -0.026773168
000180 c5 86 1e 3d 14 27 4d bc 7b e7 1c bd d6 25 e2 3c
       0.038702745 -0.012521524 -0.038306694 0.027605932
000190 00 fc c8 3b 40 1c f6 ba cf 75 39 bd be 1b 02 bd
       0.0061335564 -0.001877673 -0.045278367 -0.03176474
0001a0 8a 65 f9 3c 1c 08 81 bc 78 1d 0f bd 16 d0 e9 3c
       0.030443925 -0.015750937 -0.034940213 0.028541606
0001b0 1e e1 26 bd c6 b2 e9 3c 46 64 8b bc e2 87 ac 3c
       -0.040742032 0.028527629 -0.017015588 0.021060888
0001c0 30 84 e6 3b 9d 45 47 3d 82 46 a5 3c 00 76 5d bb
       0.007034801 0.048650373 0.020175222 -0.0033792257
0001d0 07 0a 41 3d f3 9e 24 bd 68 fd c9 3b 7e ac 86 3c
       0.047128703 -0.04019065 0.0061642416 0.016439673

fc2.weight f4 [84, 120]
000000 ae 20 92 bd 76 dc 46 bd 01 30 29 bd f1 95 3f bd
       -0.071351394 -0.04855009 -0.041305546 -0.046773855
000010 40 45 36 bc 20 f5 67 bd ea 9f b0 3d 20 f1 15 bb
       -0.011124909 -0.056630254 0.08624251 -0.0022879317
000020 6e ba b9 3d d8 78 ba 3c 48 9f 6e bc 60 c3 02 3c
       0.09068762 0.0227627 -0.014564343 0.007981151
000030 d8 42 57 bd 76 23 76 bd 80 37 12 3d c0 6c 42 bc
       -0.05255398 -0.060092412 0.03569746 -0.011866748
000040 80 6d 02 3c c8 bf 27 bc 32 9a 91 3d 33 7d ba bd
       0.007960677 -0.010238595 0.071094885 -0.09105911
000050 53 04 70 bd bd 16 44 bd 02 4f ed bc 8c 07 94 3d
       -0.058597874 -0.047873247 -0.028968338 0.07228002
000060 68 04 7d 3d be 63 8a bd 5c 40 d7 bc f2 f2 99 3d
       0.06177178 -0.067573056 -0.026275806 0.07517041
000070 a3 67 90 bd d8 1d 1b 3c dc 19 0d 3d b0 6c 31 3d
       -0.07051017 0.0094675645 0.03444849 0.043316543
000080 16 55 82 3d 98 6b 74 3d 68 3c c1 3c ac 3c b0 bd
       0.06363885 0.059672922 0.023588374 -0.08605322
000090 fc d2 25 bd 8c 9a 81 bc 37 92 88 bd 62 05 41 bd
       -0.040484414 -0.015820764 -0.06668513 -0.047124274
0000a0 d4 9b 9f 3c 5f 74 11 bd 50 11 7a 3c bc 76 08 3d
       0.019483484 -0.03551137 0.015262917 0.03331636
0000b0 ec c0 3d 3d fc 25 91 bd f6 37 a8 3d 8c 6d 16 3d
       0.046326563 -0.07087323 0.08213799 0.036725566
0000c0 88 4e 08 3c 40 5d d2 bc 28 7e e3 bc 70 2f c3 3b
       0.008319505 -0.02567923 -0.027770117 0.0059565827
0000d0 b0 0e fe bb 6f f3 ae bd 80 34 79 3c eb f9 76 bd
       -0.0077532157 -0.08542525 0.015210271 -0.060296934
0000e0 e6 35 9c bd f4 34 5d 3d 28 be 69 bc b4 b4 c4 bc
       -0.07627468 0.05400558 -0.014266528 -0.024011947
0000f0 10 d0 4c bc b7 f0 18 bd 98 77 44 3d 20 c0 1c bb
       -0.012500778 -0.03733894 0.047965616 -0.0023918226
000100 7c 91 21 bd d8 8d b4 3d 64 11 8e 3d 76 6b 93 3d
       -0.039445385 0.08816117 0.06936911 0.07198231
000110 46 48 ba bd b4 0d 90 3c f8 6b 11 3c 32 af ab 3d
       -0.09095816 0.01758466 0.008875839 0.08383025
000120 2c 84 db 3c e4 ae a7 3c 3c b0 76 3d dc 00 2a 3d
       0.026796423 0.020469137 0.060226664 0.041504726
000130 42 7b a6 bd 92 81 b5 bd 82 db 41 bd 10 39 80 bc
       -0.08128978 -0.08862604 -0.04732848 -0.01565221
000140 4c 64 be 3c 84 2b 75 3d 28 75 a6 bd b8 09 54 bc
       0.023241185 0.059855953 -0.081278145 -0.01294177
000150 20 a3 92 bd f0 c5 a1 3d 24 6e 66 3d a0 69 57 3d
       -0.0716002 0.07899082 0.056257382 0.052590966
000160 18 40 01 bc b9 66 6d bd 07 d4 3b bd 80 5b 68 ba
       -0.007888816 -0.057959292 -0.045856502 -0.0008863732
000170 80 13 91 3a 00 69 bd b9 a0 34 a4 3d 83 43 3c bd
       0.0011068434 -0.0003612712 0.0801785 -0.04596282
000180 f2 ca 8c 3d 40 f1 25 3d bd 37 91 bd 2b e9 25 bd
       0.06874646 0.040513277 -0.07090709 -0.04050557
000190 b3 50 5b bd 00 31 6a ba 4c fb 46 3d c8 8f 5c 3d
       -0.053543758 -0.0008933693 0.0485795 0.053848058
0001a0 50 47 8c bc 98 e9 a8 3d b8 56 34 3d cc 42 97 3c
       -0.017123848 0.082476795 0.044028014 0.018464468
0001b0 ea b3 97 bd 69 df 9a bd e4 4e 68 3d ec e6 47 3d
       -0.07407363 -0.07562143 0.05671586 0.04880421
0001c0 67 14 34 bd 98 8a 88 bd 60 3d 9b 3b 3f 0a ab bd
       -0.04396477 -0.0666706 0.004737541 -0.08351564
0001d0 34 1b 7c 3d 08 01 45 3d 40 0a cf 3c d2 8f 82 bd
       0.06154938 0.048096687 0.025273442 -0.06375088
0001e0 70 a5 40 bc ee 8b 30 bd 78 f5 37 3d 08 59 b2 3d
       -0.011758193 -0.043102197 0.04491183 0.087083876
0001f0 d0 25 96 3b b0 8e c0 bc 4c ac 83 3d 6c c2 ad bc
       0.0045821443 -0.023505539 0.064293474 -0.021210872
000200 46 ed 32 bd 4d 84 9a bd 58 21 53 3c c8 ca 93 3d
       -0.043683313 -0.075447656 0.012886368 0.07216412
000210 08 dc 71 3d 24 db 14 3d 54 eb 82 3d 43 f3 94 bd
       0.05904773 0.0363418 0.063925415 -0.07272961
000220 ee 4c b7 3d 8c 80 e6 bc 07 ea ad bd a4 db 2d 3d
       0.0895022 -0.028137468 -0.08491903 0.042445794
000230 08 7f c8 3c 00 4d a4 bc 34 29 b1 bd 00 68 81 3a
       0.024474636 -0.020056248 -0.08650437 0.0009872913
000240 63 28 38 bd 11 88 63 bd 8e c3 a7 3d 4c b0 35 3d
       -0.04496039 -0.055549685 0.08191596 0.044357583
000250 6e 31 a0 bd ad 28 21 bd 3a 4f 31 bd f4 5c a8 bd
       -0.07821928 -0.039345432 -0.043288447 -0.082208544
000260 dc a6 8d bd 5e 18 ba 3d f0 0a a0 3b e0 ef 99 3d
       -0.069165915 0.09086679 0.0048841164 0.07516456
000270 f8 29 80 3c 92 9a b4 3d 54 ca 62 bd 0c 71 d0 3c
       0.015645012 0.088185444 -0.055368736 0.02544453
000280 0d fc 32 bd 4e 2c 05 3d c8 f0 90 3d b2 84 8d 3d
       -0.043697406 0.032512955 0.070771754 0.06910075
000290 37 ce 6f bd a0 6a 5f bb e0 d7 ea 3b e0 b9 6b 3b
       -0.05854627 -0.0034090653 0.0071668476 0.0035968944
0002a0 de b0 17 bd 94 08 e3 3c e4 17 93 bd fc a5 e4 bc
       -0.037033908 0.027714051 -0.07182291 -0.027911179
0002b0 0b cb 41 bd d9 54 0c bd 63 e7 56 bd 0c 24 6e 3d
       -0.047312777 -0.034260605 -0.05246676 0.058139846
0002c0 a0 e9 a0 bc 50 b6 32 3d 80 77 03 3a c0 df a5 3b
       -0.019642651 0.043630898 0.00050150603 0.0050620735
0002d0 12 45 ab 3d 60 73 6d 3d 48 3d b6 3d 29 d3 98 bd
       0.083627835 0.05797136 0.08898407 -0.074621506
0002e0 d6 00 b9 3d 31 f0 20 bd 00 72 cf ba 88 55 28 3c
       0.090333626 -0.039291564 -0.0015826821 0.0102742985
0002f0 d0 b4 b4 bd 5c 62 31 3d 9b ba 51 bd fe 78 a5 3d
       -0.0882355 0.043306693 -0.05120335 0.08079718
000300 b8 52 76 bc 42 18 85 bd c0 de 85 3d e0 1c 2e 3b
       -0.01503437 -0.064987674 0.06536627 0.0026567504
000310 8d 6e 8a bd d8 44 7b 3c 4c 3a 9e bc a6 b3 b6 bd
       -0.06759367 0.015336238 -0.019314907 -0.08920984
000320 74 37 a6 3c 17 a5 2c bd 04 9c 8a bc 6a b7 9d 3d
       0.020290114 -0.04214963 -0.016920097 0.07700999
000330 40 4d a2 3a e2 6e 82 bd 88 a9 87 3d 8f 09 8a bd
       0.0012382641 -0.063688055 0.066241324 -0.067401044
000340 74 92 29 3d 00 80 a8 3c 36 ca a1 3d 26 ce 9e bd
       0.041399434 0.020568848 0.07899897 -0.077541634
000350 4e 40 0e bd 78 0c f8 3c 1c 69 ba bc 31 04 85 bd
       -0.034729294 0.030279383 -0.022755198 -0.0649494
000360 b8 3c 39 3c 8c 43 29 3d a0 8b 45 3b 40 ef 94 3d
       0.01130598 0.041324183 0.0030143037 0.07272196
000370 66 e4 99 bd c0 22 7b 3d 96 d4 af 3d 4c dd 1d bd
       -0.07514267 0.061312437 0.085854694 -0.038541123
000380 50 68 3c bc fa bd 3d bd 3b 53 b0 bd 88 cd 09 3c
       -0.011499479 -0.046323754 -0.08609625 0.008410819
000390 74 f9 b4 bd 2a c8 b0 3d 56 54 ab 3d c8 e6 e1 bc
       -0.08836642 0.08631928 0.08365695 -0.027575865
0003a0 80 34 f8 3b 5c 2b 3e bd 04 80 aa 3d 00 c1 f2 3a
       0.007574618 -0.04642807 0.08325198 0.0018520653
0003b0 4c 04 c3 3c 58 a6 db bc 00 7b ad b9 5f ea 8e bd
       0.02380576 -0.026812717 -0.00033088773 -0.069782965
0003c0 c8 60 30 bc 28 3a 18 3d 28 c9 68 3d fc 53 9a bd
       -0.010765262 0.037164837 0.056832463 -0.0753555
0003d0 d4 8a 14 3d 34 2b 37 3d 00 ae 04 bc 70 d4 0e 3d
       0.03626521 0.044718936 -0.008098125 0.034870565
0003e0 50 26 9d bd 88 10 09 bd 99 7e 00 bd 8d 14 2d bd
       -0.07673323 -0.03346303 -0.031370733 -0.042255927
0003f0 00 2d c9 3b c8 62 25 bd 72 58 98 bd 83 b9 63 bd
       0.0061393976 -0.04037741 -0.074387446 -0.05559684

fc2.bias f4 [84]
000000 84 cb 42 3d dc 50 46 bd e0 54 04 bc 80 6c b0 bb
       0.04755737 -0.048416957 -0.008076876 -0.005384028
000010 84 f2 e1 3c e4 af 0a 3d c8 67 17 bd fc d7 f6 bc
       0.02758146 0.03385915 -0.036964208 -0.030132286
000020 c8 30 3b bd 64 0d a6 bc ab 74 a1 bd 76 08 94 bd
       -0.04570082 -0.020270057 -0.07883581 -0.07228176
000030 7c 38 1a 3d a3 d2 0a bd d4 a7 ca 3c 19 9b 2a bd
       0.037651524 -0.033892285 0.02473823 -0.04165182
000040 c0 13 90 3a c8 d9 27 3d 6b f6 8d bd 6c 8f 92 3d
       0.0010992214 0.040979177 -0.06931766 0.07156262
000050 89 6d 74 bd 54 a2 dd bc 9c 94 1b 3d 56 ca b2 bd
       -0.059674773 -0.027054943 0.03798352 -0.08729999
000060 98 26 34 3d 0c cf 95 3d 96 8f 9f bd d0 05 b8 bb
       0.04398212 0.07314882 -0.07791059 -0.0056159273
000070 47 0f 68 bd d4 65 4e 3d 13 13 60 bd d0 dc a2 bd
       -0.056655195 0.05039008 -0.05470569 -0.07952273
000080 7e f2 65 bd 58 6c 8f 3d a0 58 73 3c 10 bf a5 bd
       -0.05613946 0.07003087 0.014852673 -0.08093083
000090 48 37 3e bc cc 94 8f bd 7a 33 94 3d 7e 0e a4 bd
       -0.01160986 -0.070108026 0.07236381 -0.08010577
0000a0 a4 59 e2 3c 98 95 b0 3d 0a 56 b0 bd 40 15 90 3c
       0.027630635 0.08622283 -0.08610161 0.017588258
0000b0 60 51 02 3b 78 0e 39 3d 1b 22 29 bd 16 29 4f bd
       0.001988493 0.045179814 -0.04129229 -0.050576292
0000c0 04 e6 c1 3c 64 b6 09 bd 60 fa 33 bc b8 a4 b2 3d
       0.02366925 -0.033621207 -0.010984987 0.08722824
0000d0 b7 6f 8a bd 8e 04 ff bc b4 38 8b 3d 26 3f 5e bd
       -0.06759589 -0.031130102 0.06797925 -0.05425944
0000e0 98 6a 57 3d 70 66 9b 3d c2 20 86 3d 8c f0 43 3d
       0.05259189 0.07587898 0.06549217 0.047836825
0000f0 63 85 b7 bd 10 48 0f 3d 4e 71 92 bd 38 9f ee bc
       -0.089609884 0.034980834 -0.071505174 -0.029128656
000100 18 ff 51 bd 16 77 89 bd 16 1a 97 3d 08 d7 80 3d
       -0.051268667 -0.06712167 0.073780224 0.06291014
000110 1c be 17 3d c8 fe 0f 3d ea 5c ab 3d 90 c8 25 3d
       0.037046537 0.035155088 0.08367331 0.040474474
000120 78 76 29 3c dc 6b 83 3d 28 01 03 bd 80 c3 14 bc
       0.010343187 0.06417057 -0.031983525 -0.009079814
000130 30 6a 40 3d 50 97 b4 3b ac 41 98 3d 28 ae 07 bc
       0.04697627 0.005511202 0.07434401 -0.008281268
000140 0b 50 47 bd 00 b1 10 3d ce fb 95 3d 6c 0a b8 bd
       -0.04866032 0.03532505 0.073234186 -0.08986363

fc3.weight f4 [10, 84]
000000 12 12 bc bd 1e 0e 18 3d 0f 77 82 3d e0 f8 82 3b
       -0.09183134 0.03712284 0.06370365 0.0039969534
000010 2b f2 96 bd b0 70 af bd 40 74 db ba f6 c5 1b 3d
       -0.073704086 -0.08566415 -0.0016743019 0.038030587
000020 f5 07 c9 bd ee 69 5c 3d 81 bd d2 bd e6 31 0c 3d
       -0.09815971 0.05381196 -0.10290051 0.034227274
000030 08 a1 74 bd 68 bf b4 bd 9c 81 d9 3c f8 b6 46 bc
       -0.059723884 -0.0882557 0.02655106 -0.012128584
000040 42 e0 01 3d 57 23 b8 3d e9 a6 de 3d c6 f2 29 3d
       0.03170801 0.089911155 0.10871679 0.041491292
000050 de 67 c5 bd 8d 4e 99 3d 45 02 d9 3d c1 ae 9c bd
       -0.09638952 0.074856855 0.10596136 -0.07650519
000060 ff 8f ce 3d f0 e0 bc bd 66 72 d6 bd 41 4d 83 3d
       0.10086059 -0.09222591 -0.104710385 0.064112194
000070 79 df 87 3d 70 25 35 bc 06 65 ad bd e4 89 f2 3c
       0.06634421 -0.011056289 -0.08466534 0.029606767
000080 c6 b5 13 3d 0e 78 0e 3d 3d 55 8f 3d 8a 65 36 bd
       0.036062025 0.03478246 0.0699868 -0.04453043
000090 6b 5c ac 3d ba 37 70 bd 72 b4 29 3d e6 29 35 3d
       0.08416065 -0.058646895 0.04143185 0.04422941
0000a0 15 91 a3 bd d5 c4 88 3d cd 36 a6 3d 91 03 c4 bd
       -0.079866566 0.06678168 0.08115921 -0.09570993
0000b0 80 70 cf bc bf 9e 81 3d 01 cd 9b 3d a8 ee 34 3c
       -0.025322199 0.063291065 0.07607461 0.011043228
0000c0 ec 4b 8d 3c 7e 1d 1c bd da 7a 5a 3d 5b 03 a3 bd
       0.017248116 -0.038114063 0.053339817 -0.079596244
0000d0 b4 10 bc 3c 08 61 c6 bc 8a 95 3a bd b2 29 7c 3d
       0.022957183 -0.02421619 -0.045552768 0.0615632
0000e0 ef 34 7c bd a9 70 d5 3d b2 39 7b 3d d6 64 3e 3d
       -0.06157392 0.10421879 0.06133432 0.046482883
0000f0 0a 27 6c 3d 14 1b d8 bd 6e f8 0d 3d 94 94 b3 3c
       0.057654418 -0.1055204 0.03466075 0.021921434
000100 3e 17 b9 bd 40 1e 7d 3b 12 83 24 3d 8e 37 ab bd
       -0.09037636 0.0038622767 0.04016406 -0.083602056
000110 3f 35 8d bd 87 ec b0 3d c6 d1 74 bd db 8b b1 3d
       -0.068949215 0.08638864 -0.059770368 0.086692534
000120 ce 71 85 bd 5e 5d ba bd 9b 1e cb 3d 19 11 c2 3d
       -0.06515847 -0.0909984 0.09917947 0.09475917
000130 1f 5e d5 3d 5a 00 50 3d 31 5f a6 3d 42 66 4a 3d
       0.10418343 0.050781585 0.08123625 0.049413927
000140 80 8e 6b ba ca 70 0a 3d a0 75 9c bc 5a fe 3c 3d
       -0.0008985773 0.03379897 -0.019099057 0.046141006
000150 67 a5 4b bd 6a 24 10 3d 4e 9b 97 bd 4d 7e 53 bd
       -0.049718287 0.035190977 -0.07402669 -0.05163412
000160 38 a6 5f 3c 6e 8e 65 3d bc 03 8a 3c 4a b5 51 3d
       0.0136504695 0.056044035 0.016847484 0.05119828
000170 0a 15 19 bd a7 5f dd bd 84 64 a8 bc cc 6f ca bd
       -0.03737358 -0.1080926 -0.020555742 -0.09884605
000180 d3 e4 9e 3d ec bf d8 bd 63 de c4 3d 0e 00 55 3d
       0.077584885 -0.10583481 0.096127294 0.052002005
000190 2d 81 b2 3d 67 f7 c0 3d 0a 78 0c 3d f8 05 61 3c
       0.087160446 0.09422188 0.034294166 0.013734333
0001a0 17 64 9e 3d 73 99 6f bd 40 51 65 bc 09 7e 90 3d
       0.077339344 -0.05849595 -0.013996422 0.07055289
0001b0 b7 e1 a0 bd 40 4b c2 bb 83 34 b7 3d 00 df 49 3a
       -0.07855552 -0.0059293807 0.08945563 0.0007700771
0001c0 8c a2 f4 bc 74 a5 b3 bc 86 21 8b bd 1e 25 39 3d
       -0.029862665 -0.02192948 -0.067935035 0.045201413
0001d0 af e4 bb 3d 35 7c de 3d 80 a4 91 3b a1 be 99 3d
       0.09174477 0.10863534 0.0044446588 0.07507063
0001e0 c9 80 c0 3d 91 4c c4 3d 42 74 11 3d 99 76 a1 3d
       0.09399564 0.095849164 0.035511263 0.07883949
0001f0 d8 f4 08 bc 94 72 cf bc 72 b6 b7 bd 82 3a 3c bd
       -0.008359157 -0.02532319 -0.089703456 -0.045954235
000200 5a 90 b3 bd 04 de 4b bd 68 cd ac bc 82 22 10 bd
       -0.08767767 -0.049772277 -0.02109404 -0.03518916
000210 10 67 a9 bd 27 bb 86 3d 10 8d fb bb 66 cb 71 3d
       -0.08271611 0.06578665 -0.007676728 0.059031866
000220 5b a7 aa 3d cf da ba 3d 00 24 8d bd c4 d2 fc 3c
       0.08332702 0.09123766 -0.06891632 0.03086222
000230 90 6a e4 bb 42 17 66 3d 06 e2 02 3d 38 3f 34 3c
       -0.006970711 0.056174524 0.031953834 0.011001401
000240 22 4b 57 3d 45 72 a7 3d ee 5d 22 3d 2a 5d 29 3d
       0.052561887 0.08176092 0.03964036 0.041348614
000250 5b 7d b2 bd 54 62 f3 3c 1c 9c 86 3c 05 bb 93 3d
       -0.08715316 0.029709972 0.01643186 0.072134055
000260 c4 40 aa bc 3e ef 12 bd d0 30 51 3c e8 17 69 3c
       -0.020782836 -0.03587269 0.012767985 0.014226891
000270 56 94 b8 bd b3 17 dd bd 48 c8 4d bd f9 de 64 bd
       -0.09012668 -0.10795536 -0.05023983 -0.055876706
000280 3c 46 95 bd 40 3c b6 bd 51 fe b5 3d 78 21 d1 bc
       -0.07288787 -0.088982105 0.08886398 -0.025528654
000290 42 c5 3a 3d 1d 9d c1 3d de ca 3f 3d 2a 4a 03 bd
       0.045598276 0.09453795 0.04682433 -0.03205315
0002a0 4d 60 b4 3d 4d 55 88 3d bc 37 99 3c aa 49 48 bd
       0.088074304 0.06656895 0.018703334 -0.048898377
0002b0 e6 72 0b 3d 10 a3 da bc fd b0 ca bd 14 cd fc bc
       0.034045123 -0.026689082 -0.09897039 -0.030859508
0002c0 1d 23 88 3d a5 5e 60 bd f3 12 9f 3d 00 e8 c4 ba
       0.06647322 -0.05477776 0.07767286 -0.0015022755
0002d0 a0 42 c7 bb 8b 8e d4 bd 7c 96 2f bd 00 02 df bc
       -0.0060809404 -0.103787504 -0.042868122 -0.027222633
0002e0 c2 42 93 bd 63 bc 97 3d c0 c0 2a 3b 97 b2 da bd
       -0.071904674 0.07408979 0.002605483 -0.106785946
0002f0 df b3 9a 3d a4 fa c2 bc 76 a4 3c 3d fd 31 62 bd
       0.07553839 -0.023801155 0.04605528 -0.055223454
000300 f7 a7 d4 bd d6 b0 51 3d 53 41 de 3d e5 6b 9f bd
       -0.10383599 0.051194035 0.10852303 -0.07784251
000310 fa 2a 9c bd 1c 7a c5 3c c8 be 1c bd c0 9c 69 3c
       -0.07625385 0.024106078 -0.03826788 0.0142585635
000320 4b f3 c7 3d d8 4e 1d bd 14 fd 83 3c a0 e6 20 3b
       0.09763201 -0.03840527 0.016111888 0.0024551526
000330 55 4a 8c 3d 8a 57 2e 3d 34 d0 a5 bc 57 ec b4 bd
       0.06850115 0.042563953 -0.02024088 -0.08834141
000340 7c e7 10 bd ba 4e 97 bd 36 bb 7d 3d d2 de 49 3d
       -0.03537701 -0.07388063 0.061946116 0.049284764
000350 32 19 c7 bd 7a 7e 52 3d 3f 12 d3 3d 3c 3d 8a 3c
       -0.097216025 0.05139015 0.103062145 0.016874902
000360 f2 fb 3b 3d d0 67 bd bb b3 da a0 3d 58 f7 3a bd
       0.04589457 -0.0057801977 0.078542136 -0.04564604
000370 a0 f5 e9 bb 5e 93 0d 3d fd 03 96 3d b0 7f 7a bc
       -0.0071398765 0.03456437 0.073249795 -0.015289232
000380 6c 51 d6 bd f4 b8 ef bc 07 02 68 bd d0 33 15 bd
       -0.10464749 -0.029262997 -0.05664256 -0.036426365
000390 16 57 23 3d dc a1 16 bd 6a 73 d4 bd 6a 04 b0 bd
       0.039877973 -0.036775455 -0.10373576 -0.08594592
0003a0 de 5c 8c bd 95 0b c9 3d 69 c6 96 3d 3d 6f c5 3d
       -0.068536505 0.09816662 0.073620625 0.09640358
0003b0 45 b9 c5 bd c0 cc 23 3c aa 60 1b bd 77 fa 47 bd
       -0.09654478 0.009997547 -0.037933983 -0.048822846
0003c0 22 90 12 3d dc 91 f8 bc 52 d2 60 3d c6 09 2b bd
       0.035781987 -0.030342989 0.054888077 -0.041757368
0003d0 1e b7 be bd 16 2e bd bd e3 4a a4 bd 0d 11 86 3d
       -0.093122706 -0.09237306 -0.08022096 0.06546221
0003e0 5a 80 22 3d 90 a1 19 bc 40 48 bb ba f1 0a df 3d
       0.039673187 -0.009376898 -0.00142885 0.10890759
0003f0 10 88 a6 bc 02 df 04 3d 32 9d 08 bd ba 7e 63 3d
       -0.020328552 0.03243924 -0.033353038 0.055540778

fc3.bias f4 [10]
000000 32 d4 51 3d 78 e3 1b 3c ff ca 9c 3d 0d d3 89 bd
       0.051227756 0.009514682 0.07655906 -0.06729708
000010 23 10 84 bd 24 be 84 bc e8 3c 3f bc 8b 0e 96 3d
       -0.0644839 -0.016203947 -0.011672236 0.073269926
000020 18 7c 6c bd 97 90 87 bd
       -0.057735533 -0.06619375
